…
put_cfg[\"in_channel\"],\n","            num_classes=model_cfg[\"num_classes\"]\n","        )\n","\n","    model.eval()\n","    return model\n"]},{"cell_type":"code","execution_count":null,"metadata":{"id":"xGXz7CZ4q5P0","executionInfo":{"status":"ok","timestamp":1773155936605,"user_tz":-420,"elapsed":1271,"user":{"displayName":"Ahn Đức","userId":"03706930103223800336"}},"colab":{"base_uri":"https://localhost:8080/"},"outputId":"e8a7e3bc-beaa-46bd-f79a-747ce19d269f"},"outputs":[{"output_type":"execute_result","data":{"text/plain":["LightweightHeartSoundCNN(\n","  (stem): Sequential(\n","    (0): Conv2d(1, 24, kernel_size=(5, 5), stride=(1, 1), padding=(2, 2), bias=False)\n","    (1): BatchNorm2d(24, eps=1e-05, momentum=0.1, affine=True, track_running_stats=True)\n","    (2): ReLU6(inplace=True)\n","    (3): Dropout2d(p=0.1, inplace=False)\n","  )\n","  (stage1): Sequential(\n","    (0): DSConvBlock(\n","      (dw): Conv2d(24, 24, kernel_size=(3, 3), stride=(1, 1), padding=(1, 1), groups=24, bias=False)\n","      (pw): Conv2d(24, 32, kernel_size=(1, 1), stride=(1, 1), bias=False)\n","      (bn): BatchNorm2d(32, eps=1e-05, momentum=0.1, affine=True, track_running_stats=True)\n","      (act): ReLU6(inplace=True)\n","    )\n","    (1): MaxPool2d(kernel_size=2, stride=2, padding=0, dilation=1, ceil_mode=False)\n","  )\n","  (stage2): Sequential(\n","    (0): DSConvBlock(\n","      (dw): Conv2d(32, 32, kernel_size=(3, 3), stride=(1, 1), padding=(1, 1), groups=32, bias=False)\n","      (pw): Conv2d(32, 48, kernel_size=(1, 1), stride=(1, 1), bias=False)\n","      (bn): BatchNorm2d(48, eps=1e-05, momentum=0.1, affine=True, track_running_stats=True)\n","      (act): ReLU6(inplace=True)\n","    )\n","    (1): MaxPool2d(kernel_size=2, stride=2, padding=0, dilation=1, ceil_mode=False)\n","  )\n","  (stage3): DSConvBlock(\n","    (dw): Conv2d(48, 48, kernel_size=(3, 3), stride=(1, 1), padding=(1, 1), groups=48, bias=False)\n","    (pw): Conv2d(48, 48, kernel_size=(1, 1), stride=(1, 1), bias=False)\n","    (bn): BatchNorm2d(48, eps=1e-05, momentum=0.1, affine=True, track_running_stats=True)\n","    (act): ReLU6(inplace=True)\n","  )\n","  (se): LiteSEBlock(\n","    (gap): AdaptiveAvgPool2d(output_size=1)\n","    (fc): Sequential(\n","      (0): Linear(in_features=48, out_features=12, bias=True)\n","      (1): ReLU(inplace=True)\n","      (2): Linear(in_features=12, out_features=48, bias=True)\n","      (3): Sigmoid()\n","    )\n","  )\n","  (gap): AdaptiveAvgPool2d(output_size=1)\n","  (bn_head): BatchNorm1d(48, eps=1e-05, momentum=0.1, affine=True, track_running_stats=True)\n","  (dropout_layer): Dropout(p=0.5, inplace=False)\n","  (classifier): Sequential(\n","    (0): Linear(in_features=48, out_features=16, bias=True)\n","    (1): ReLU6(inplace=True)\n","    (2): Dropout(p=0.3, inplace=False)\n","    (3): Linear(in_features=16, out_features=2, bias=True)\n","  )\n",")"]},"metadata":{},"execution_count":26}],"source":["# =========================\n","# CHECK MODEL NAME\n","# =========================\n","if MODEL_NAME not in MODEL_CLASS_MAP:\n","    raise ValueError(\n","        f\"Model {MODEL_NAME} không được hỗ trợ. \"\n","        f\"Các model hỗ trợ: {list(MODEL_CLASS_MAP.keys())}\"\n","    )\n","\n","
…
outputs":[]},{"cell_type":"code","source":["device = torch.device(\"cpu\")\n","\n","model = model.to(device)\n","dummy_input = dummy_input.to(device)\n","model.eval()"],"metadata":{"id":"oldHgA1YVtP7","executionInfo":{"status":"ok","timestamp":1773156232715,"user_tz":-420,"elapsed":7,"user":{"displayName":"Ahn Đức","userId":"03706930103223800336"}},"colab":{"base_uri":"https://localhost:8080/"},"outputId":"b4444e96-e75e-47d6-85fa-6e644a110267"},"execution_count":null,"outputs":[{"output_type":"execute_result","data":{"text/plain":["LightweightHeartSoundCNN(\n","  (stem): Sequential(\n","    (0): Conv2d(1, 24, kernel_size=(5, 5), stride=(1, 1), padding=(2, 2), bias=False)\n","    (1): BatchNorm2d(24, eps=1e-05, momentum=0.1, affine=True, track_running_stats=True)\n","    (2): ReLU6(inplace=True)\n","    (3): Dropout2d(p=0.1, inplace=False)\n","  )\n","  (stage1): Sequential(\n","    (0): DSConvBlock(\n","      (dw): Conv2d(24, 24, kernel_size=(3, 3), stride=(1, 1), padding=(1, 1), groups=24, bias=False)\n","      (pw): Conv2d(24, 32, kernel_size=(1, 1), stride=(1, 1), bias=False)\n","      (bn): BatchNorm2d(32, eps=1e-05, momentum=0.1, affine=True, track_running_stats=True)\n","      (act): ReLU6(inplace=True)\n","    )\n","    (1): MaxPool2d(kernel_size=2, stride=2, padding=0, dilation=1, ceil_mode=False)\n","  )\n","  (stage2): Sequential(\n","    (0): DSConvBlock(\n","      (dw): Conv2d(32, 32, kernel_size=(3, 3), stride=(1, 1), padding=(1, 1), groups=32, bias=False)\n","      (pw): Conv2d(32, 48, kernel_size=(1, 1), stride=(1, 1), bias=False)\n","      (bn): BatchNorm2d(48, eps=1e-05, momentum=0.1, affine=True, track_running_stats=True)\n","      (act): ReLU6(inplace=True)\n","    )\n","    (1): MaxPool2d(kernel_size=2, stride=2, padding=0, dilation=1, ceil_mode=False)\n","  )\n","  (stage3): DSConvBlock(\n","    (dw): Conv2d(48, 48, kernel_size=(3, 3), stride=(1, 1), padding=(1, 1), groups=48, bias=False)\n","    (pw): Conv2d(48, 48, kernel_size=(1, 1), stride=(1, 1), bias=False)\n","    (bn): BatchNorm2d(48, eps=1e-05, momentum=0.1, affine=True, track_running_stats=True)\n","    (act): ReLU6(inplace=True)\n","  )\n","  (se): LiteSEBlock(\n","    (gap): AdaptiveAvgPool2d(output_size=1)\n","    (fc): Sequential(\n","      (0): Linear(in_features=48, out_features=12, bias=True)\n","      (1): ReLU(inplace=True)\n","      (2): Linear(in_features=12, out_features=48, bias=True)\n","      (3): Sigmoid()\n","    )\n","  )\n","  (gap): AdaptiveAvgPool2d(output_size=1)\n","  (bn_head): BatchNorm1d(48, eps=1e-05, momentum=0.1, affine=True, track_running_stats=True)\n","  (dropout_layer): Dropout(p=0.5, inplace=False)\n","  (classifier): Sequential(\n","    (0): Linear(in_features=48, out_features=16, bias=True)\n","    (1): ReLU6(inplace=True)\n","    (2): Dropout(p=0.3, inplace=False)\n","    (3): Linear(in_features=16, out_features=2, bias=True)\n","  )\n",")"]},"metadata":{},"execution_count":34}]},{"cell_type":"markdown","metadata":{"id":"Ghh46LBo3uGo"},"source":["# Chuyển sang ONXX"]},{"cell_type":"code","execution_count":null,"metadata":{"id":"lBQl35W33wfU","executionInfo":{"status":"ok","timestamp":1773156232727,"user_tz":-420,"elapsed":11,"user":{"displayName":"Ahn Đức","userId":"0370693010
…
