…
nput_cfg[\"in_channel\"],\n","            num_classes=model_cfg[\"num_classes\"]\n","        )\n","\n","    model.eval()\n","    return model\n"]},{"cell_type":"code","execution_count":null,"metadata":{"id":"xGXz7CZ4q5P0","colab":{"base_uri":"https://localhost:8080/"},"executionInfo":{"status":"ok","timestamp":1770135641269,"user_tz":-420,"elapsed":366,"user":{"displayName":"Ahn Đức","userId":"03706930103223800336"}},"outputId":"08346fd2-e8ff-4ca3-9fa7-a5af976819c9"},"outputs":[{"output_type":"execute_result","data":{"text/plain":["LightweightHeartSoundCNN(\n","  (stem): Sequential(\n","    (0): Conv2d(1, 16, kernel_size=(3, 3), stride=(2, 2), padding=(1, 1), bias=False)\n","    (1): BatchNorm2d(16, eps=1e-05, momentum=0.1, affine=True, track_running_stats=True)\n","    (2): ReLU6(inplace=True)\n","  )\n","  (attention_pool): Sequential(\n","    (0): Conv2d(128, 64, kernel_size=(1, 1), stride=(1, 1))\n","    (1): ReLU6()\n","    (2): Conv2d(64, 1, kernel_size=(1, 1), stride=(1, 1))\n","    (3): Sigmoid()\n","  )\n","  (features): Sequential(\n","    (0): DepthwiseSeparableConv(\n","      (depthwise): Conv2d(16, 16, kernel_size=(3, 3), stride=(2, 2), padding=(1, 1), groups=16, bias=False)\n","      (pointwise): Conv2d(16, 32, kernel_size=(1, 1), stride=(1, 1), bias=False)\n","      (bn): BatchNorm2d(32, eps=1e-05, momentum=0.1, affine=True, track_running_stats=True)\n","      (relu): ReLU6(inplace=True)\n","    )\n","    (1): Dropout2d(p=0.1, inplace=False)\n","    (2): DepthwiseSeparableConv(\n","      (depthwise): Conv2d(32, 32, kernel_size=(3, 3), stride=(2, 2), padding=(1, 1), groups=32, bias=False)\n","      (pointwise): Conv2d(32, 64, kernel_size=(1, 1), stride=(1, 1), bias=False)\n","      (bn): BatchNorm2d(64, eps=1e-05, momentum=0.1, affine=True, track_running_stats=True)\n","      (relu): ReLU6(inplace=True)\n","    )\n","    (3): Dropout2d(p=0.15, inplace=False)\n","    (4): DepthwiseSeparableConv(\n","      (depthwise): Conv2d(64, 64, kernel_size=(3, 3), stride=(2, 2), padding=(1, 1), groups=64, bias=False)\n","      (pointwise): Conv2d(64, 128, kernel_size=(1, 1), stride=(1, 1), bias=False)\n","      (bn): BatchNorm2d(128, eps=1e-05, momentum=0.1, affine=True, track_running_stats=True)\n","      (relu): ReLU6(inplace=True)\n","    )\n","    (5): Dropout2d(p=0.15, inplace=False)\n","  )\n","  (pool): AdaptiveAvgPool2d(output_size=1)\n","  (classifier): Sequential(\n","    (0): Dropout(p=0.3, inplace=False)\n","    (1): Linear(in_features=128, out_features=2, bias=True)\n","  )\n",")"]},"metadata":{},"execution_count":54}],"source":["# =========================\n","# CHECK MODEL NAME\n","# =========================\n","if MODEL_NAME not in MODEL_CLASS_MAP:\n","    raise ValueError(\n","        f\"Model {MODEL_NAME} không được hỗ trợ. \"\n","        f\"Các model hỗ trợ: {list(MODEL_CLASS_MAP.keys())}\"\n","    )\n","\n",
…
my input"]},{"cell_type":"code","source":["device = torch.device(\"cpu\")\n","\n","model = model.to(device)\n","dummy_input = dummy_input.to(device)\n","model.eval()"],"metadata":{"colab":{"base_uri":"https://localhost:8080/"},"id":"oldHgA1YVtP7","executionInfo":{"status":"ok","timestamp":1770136198110,"user_tz":-420,"elapsed":37,"user":{"displayName":"Ahn Đức","userId":"03706930103223800336"}},"outputId":"900ad195-d7c9-48b0-93ad-a4b5c4a93bd1"},"execution_count":null,"outputs":[{"output_type":"execute_result","data":{"text/plain":["LightweightHeartSoundCNN(\n","  (stem): Sequential(\n","    (0): Conv2d(1, 16, kernel_size=(3, 3), stride=(2, 2), padding=(1, 1), bias=False)\n","    (1): BatchNorm2d(16, eps=1e-05, momentum=0.1, affine=True, track_running_stats=True)\n","    (2): ReLU6(inplace=True)\n","  )\n","  (attention_pool): Sequential(\n","    (0): Conv2d(128, 64, kernel_size=(1, 1), stride=(1, 1))\n","    (1): ReLU6()\n","    (2): Conv2d(64, 1, kernel_size=(1, 1), stride=(1, 1))\n","    (3): Sigmoid()\n","  )\n","  (features): Sequential(\n","    (0): DepthwiseSeparableConv(\n","      (depthwise): Conv2d(16, 16, kernel_size=(3, 3), stride=(2, 2), padding=(1, 1), groups=16, bias=False)\n","      (pointwise): Conv2d(16, 32, kernel_size=(1, 1), stride=(1, 1), bias=False)\n","      (bn): BatchNorm2d(32, eps=1e-05, momentum=0.1, affine=True, track_running_stats=True)\n","      (relu): ReLU6(inplace=True)\n","    )\n","    (1): Dropout2d(p=0.1, inplace=False)\n","    (2): DepthwiseSeparableConv(\n","      (depthwise): Conv2d(32, 32, kernel_size=(3, 3), stride=(2, 2), padding=(1, 1), groups=32, bias=False)\n","      (pointwise): Conv2d(32, 64, kernel_size=(1, 1), stride=(1, 1), bias=False)\n","      (bn): BatchNorm2d(64, eps=1e-05, momentum=0.1, affine=True, track_running_stats=True)\n","      (relu): ReLU6(inplace=True)\n","    )\n","    (3): Dropout2d(p=0.15, inplace=False)\n","    (4): DepthwiseSeparableConv(\n","      (depthwise): Conv2d(64, 64, kernel_size=(3, 3), stride=(2, 2), padding=(1, 1), groups=64, bias=False)\n","      (pointwise): Conv2d(64, 128, kernel_size=(1, 1), stride=(1, 1), bias=False)\n","      (bn): BatchNorm2d(128, eps=1e-05, momentum=0.1, affine=True, track_running_stats=True)\n","      (relu): ReLU6(inplace=True)\n","    )\n","    (5): Dropout2d(p=0.15, inplace=False)\n","  )\n","  (pool): AdaptiveAvgPool2d(output_size=1)\n","  (classifier): Sequential(\n","    (0): Dropout(p=0.3, inplace=False)\n","    (1): Linear(in_features=128, out_features=2, bias=True)\n","  )\n",")"]},"metadata":{},"execution_count":72}]},{"cell_type":"code","execution_count":null,"metadata":{"id":"pNaWD8uh3cZT"},"outputs":[],"source":["# ================== DEFINE INPUT SHAPE & DUMMY INPUT ==================\n","# Input shape cố định sau khi fix dataset: (batch, 384, 333)\n","# MFCC: 39 coefficients\n","N_MFCC = 39\n","T = 333   # hoặ
…
