…
=input_cfg[\"in_channel\"],\n","            num_classes=model_cfg[\"num_classes\"]\n","        )\n","\n","    model.eval()\n","    return model\n"]},{"cell_type":"code","execution_count":40,"metadata":{"id":"xGXz7CZ4q5P0","executionInfo":{"status":"ok","timestamp":1772296384167,"user_tz":-420,"elapsed":405,"user":{"displayName":"Ahn Đức","userId":"03706930103223800336"}},"colab":{"base_uri":"https://localhost:8080/"},"outputId":"3f5186da-3e0b-4090-db4d-fe6142fa1b26"},"outputs":[{"output_type":"execute_result","data":{"text/plain":["LightweightHeartSoundCNN(\n","  (stem): Sequential(\n","    (0): Conv2d(1, 24, kernel_size=(3, 3), stride=(1, 1), padding=(1, 1), bias=False)\n","    (1): BatchNorm2d(24, eps=1e-05, momentum=0.1, affine=True, track_running_stats=True)\n","    (2): ReLU6(inplace=True)\n","  )\n","  (stage1): ShuffleBlock(\n","    (branch_left): Sequential(\n","      (0): Conv2d(24, 24, kernel_size=(3, 3), stride=(2, 2), padding=(1, 1), groups=24, bias=False)\n","      (1): BatchNorm2d(24, eps=1e-05, momentum=0.1, affine=True, track_running_stats=True)\n","      (2): Conv2d(24, 24, kernel_size=(1, 1), stride=(1, 1), bias=False)\n","      (3): BatchNorm2d(24, eps=1e-05, momentum=0.1, affine=True, track_running_stats=True)\n","      (4): ReLU6(inplace=True)\n","    )\n","    (branch_right): Sequential(\n","      (0): Conv2d(24, 24, kernel_size=(1, 1), stride=(1, 1), bias=False)\n","      (1): BatchNorm2d(24, eps=1e-05, momentum=0.1, affine=True, track_running_stats=True)\n","      (2): ReLU6(inplace=True)\n","      (3): Conv2d(24, 24, kernel_size=(3, 3), stride=(2, 2), padding=(1, 1), groups=24, bias=False)\n","      (4): BatchNorm2d(24, eps=1e-05, momentum=0.1, affine=True, track_running_stats=True)\n","      (5): Conv2d(24, 24, kernel_size=(1, 1), stride=(1, 1), bias=False)\n","      (6): BatchNorm2d(24, eps=1e-05, momentum=0.1, affine=True, track_running_stats=True)\n","      (7): ReLU6(inplace=True)\n","    )\n","  )\n","  (stage2): ShuffleBlock(\n","    (branch_left): Sequential(\n","      (0): Conv2d(48, 48, kernel_size=(3, 3), stride=(2, 2), padding=(1, 1), groups=48, bias=False)\n","      (1): BatchNorm2d(48, eps=1e-05, momentum=0.1, affine=True, track_running_stats=True)\n","      (2): Conv2d(48, 48, kernel_size=(1, 1), stride=(1, 1), bias=False)\n","      (3): BatchNorm2d(48, eps=1e-05, momentum=0.1, affine=True, track_running_stats=True)\n","      (4): ReLU6(inplace=True)\n","    )\n","    (branch_right): Sequential(\n","      (0): Conv2d(48, 48, kernel_size=(1, 1), stride=(1, 1), bias=False)\n","      (1): BatchNorm2d(48, eps=1e-05, momentum=0.1, affine=True, track_running_stats=True)\n","      (2): ReLU6(inplace=True)\n","      (3): Conv2d(48, 48, kernel_size=(3, 3), stride=(2, 2), padding=(1, 1), groups=48, bias=False)\n","      (4): BatchNorm2d(48, eps=1e-05, momentum=0.1, affine=True, track_running_stats=True)\n","      (5): Conv2d(48, 48, kernel_size=(1, 1), stride=(1, 1), bias=False)\n","      (6): BatchNorm2d(48, eps=1e-05, momentum=0.1, affine=True, track_running_stats=True)\n","      (7): ReLU6(inplace=True)\n","    )\n","  )\n","  (stage3): ShuffleBlock(\n","    (branch_left): Sequential(\n","      (0): Conv2d(96, 96, kernel_size=(3, 3), stride=(2, 2), padding=(1, 1), groups=96, bias=False)\n","      (1): BatchNorm2d(96, eps=1e-05, momentum=0.1, affine=True, track_running_stats=True)\n","      (2): Conv2d(96, 64, kernel_size=(1, 1), stride=(1, 1), bias=False)\n","      (3): BatchNorm2d(64, eps=1e-05, momentum=0.1, affine=True, track_running_stats=True)\n","      (4): ReLU6(inplace=True)\n","    )\n","    (branch_right): Sequential(\n","      (0): Conv2d(96, 64, kernel_size=(1, 1), stride=(1, 1), bias=False)\n","      (1): BatchNorm2d(64, eps=1e-05, momentum=0.1, affine=True, track_running_stats=True)\n","      (2): ReLU6(inplace=True)\n","      (3): Conv2d(64, 64, kernel_size=(3, 3), stride=(2, 2), padding=(1, 1), groups=64, bias=False)\n","      (4): BatchNorm2d(64, eps=1e-05, momentum=0.1, affine=True, track_running_stats=True)\n","      (5): Conv2d(64, 64, kernel_size=(1, 1), stride=(1, 1), bias=False)\n","      (6): BatchNorm2d(64, eps=1e-05, momentum=0.1, affine=True, track_running_stats=True)\n","      (7): ReLU6(inplace=True)\n","    )\n","  )\n","  (drop): Dropout2d(p=0.1, inplace=False)\n","  (se): SEBlock(\n","    (squeeze): AdaptiveAvgPool2d(output_size=1)\n","    (excitation): Sequential(\n","      (0): Linear(in_features=128, out_features=8, bias=True)\n","      (1): ReLU()\n","      (2): Linear(in_features=8, out_features=128, bias=True)\n","      (3): Sigmoid()\n","    )\n","  )\n","  (spatial_attn): Sequential(\n","    (0): Conv2d(128, 1, kernel_size=(1, 1), stride=(1, 1), bias=False)\n","    (1): Sigmoid()\n","  )\n","  (dropout): Dropout(p=0.2, inplace=False)\n","  (classifier): Sequential(\n","    (0): Linear(in_features=128, out_features=32, bias=True)\n","    (1): ReLU6()\n","    (2): Dropout(p=0.2, inplace=False)\n","    (3): Linear(in_features=32, out_features=2, bias=True)\n","  )\n",")"]},"metadata":{},"execution_count":40}],"source":["# =========================\n","# CHECK MODEL NAME\n","# =========================\n","if MODEL_NAME not in MODEL_CLASS_MAP:\n","    raise ValueError(\n","        f\"Model {MODEL_NAME} không được hỗ trợ. \"\n","        f\"Các model hỗ trợ: {list(MODEL_CLASS_MAP.keys())}\"\n","    )\n","\n","
…
"outputs":[]},{"cell_type":"code","source":["device = torch.device(\"cpu\")\n","\n","model = model.to(device)\n","dummy_input = dummy_input.to(device)\n","model.eval()"],"metadata":{"id":"oldHgA1YVtP7","executionInfo":{"status":"ok","timestamp":1772296712332,"user_tz":-420,"elapsed":39,"user":{"displayName":"Ahn Đức","userId":"03706930103223800336"}},"colab":{"base_uri":"https://localhost:8080/"},"outputId":"10350a5e-01eb-4713-e67c-652c5d3f3451"},"execution_count":49,"outputs":[{"output_type":"execute_result","data":{"text/plain":["LightweightHeartSoundCNN(\n","  (stem): Sequential(\n","    (0): Conv2d(1, 24, kernel_size=(3, 3), stride=(1, 1), padding=(1, 1), bias=False)\n","    (1): BatchNorm2d(24, eps=1e-05, momentum=0.1, affine=True, track_running_stats=True)\n","    (2): ReLU6(inplace=True)\n","  )\n","  (stage1): ShuffleBlock(\n","    (branch_left): Sequential(\n","      (0): Conv2d(24, 24, kernel_size=(3, 3), stride=(2, 2), padding=(1, 1), groups=24, bias=False)\n","      (1): BatchNorm2d(24, eps=1e-05, momentum=0.1, affine=True, track_running_stats=True)\n","      (2): Conv2d(24, 24, kernel_size=(1, 1), stride=(1, 1), bias=False)\n","      (3): BatchNorm2d(24, eps=1e-05, momentum=0.1, affine=True, track_running_stats=True)\n","      (4): ReLU6(inplace=True)\n","    )\n","    (branch_right): Sequential(\n","      (0): Conv2d(24, 24, kernel_size=(1, 1), stride=(1, 1), bias=False)\n","      (1): BatchNorm2d(24, eps=1e-05, momentum=0.1, affine=True, track_running_stats=True)\n","      (2): ReLU6(inplace=True)\n","      (3): Conv2d(24, 24, kernel_size=(3, 3), stride=(2, 2), padding=(1, 1), groups=24, bias=False)\n","      (4): BatchNorm2d(24, eps=1e-05, momentum=0.1, affine=True, track_running_stats=True)\n","      (5): Conv2d(24, 24, kernel_size=(1, 1), stride=(1, 1), bias=False)\n","      (6): BatchNorm2d(24, eps=1e-05, momentum=0.1, affine=True, track_running_stats=True)\n","      (7): ReLU6(inplace=True)\n","    )\n","  )\n","  (stage2): ShuffleBlock(\n","    (branch_left): Sequential(\n","      (0): Conv2d(48, 48, kernel_size=(3, 3), stride=(2, 2), padding=(1, 1), groups=48, bias=False)\n","      (1): BatchNorm2d(48, eps=1e-05, momentum=0.1, affine=True, track_running_stats=True)\n","      (2): Conv2d(48, 48, kernel_size=(1, 1), stride=(1, 1), bias=False)\n","      (3): BatchNorm2d(48, eps=1e-05, momentum=0.1, affine=True, track_running_stats=True)\n","      (4): ReLU6(inplace=True)\n","    )\n","    (branch_right): Sequential(\n","      (0): Conv2d(48, 48, kernel_size=(1, 1), stride=(1, 1), bias=False)\n","      (1): BatchNorm2d(48, eps=1e-05, momentum=0.1, affine=True, track_running_stats=True)\n","      (2): ReLU6(inplace=True)\n","      (3): Conv2d(48, 48, kernel_size=(3, 3), stride=(2, 2), padding=(1, 1), groups=48, bias=False)\n","      (4): BatchNorm2d(48, eps=1e-05, momentum=0.1, affine=True, track_running_stats=True)\n","      (5): Conv2d(48, 48, kernel_size=(1, 1), stride=(1, 1), bias=False)\n","      (6): BatchNorm2d(48, eps=1e-05, momentum=0.1, affine=True, track_running_stats=True)\n","      (7): ReLU6(inplace=True)\n","    )\n","  )\n","  (stage3): ShuffleBlock(\n","    (branch_left): Sequential(\n","      (0): Conv2d(96, 96, kernel_size=(3, 3), stride=(2, 2), padding=(1, 1), groups=96, bias=False)\n","      (1): BatchNorm2d(96, eps=1e-05, momentum=0.1, affine=True, track_running_stats=True)\n","      (2): Conv2d(96, 64, kernel_size=(1, 1), stride=(1, 1), bias=False)\n","      (3): BatchNorm2d(64, eps=1e-05, momentum=0.1, affine=True, track_running_stats=True)\n","      (4): ReLU6(inplace=True)\n","    )\n","    (branch_right): Sequential(\n","      (0): Conv2d(96, 64, kernel_size=(1, 1), stride=(1, 1), bias=False)\n","      (1): BatchNorm2d(64, eps=1e-05, momentum=0.1, affine=True, track_running_stats=True)\n","      (2): ReLU6(inplace=True)\n","      (3): Conv2d(64, 64, kernel_size=(3, 3), stride=(2, 2), padding=(1, 1), groups=64, bias=False)\n","      (4): BatchNorm2d(64, eps=1e-05, momentum=0.1, affine=True, track_running_stats=True)\n","      (5): Conv2d(64, 64, kernel_size=(1, 1), stride=(1, 1), bias=False)\n","      (6): BatchNorm2d(64, eps=1e-05, momentum=0.1, affine=True, track_running_stats=True)\n","      (7): ReLU6(inplace=True)\n","    )\n","  )\n","  (drop): Dropout2d(p=0.1, inplace=False)\n","  (se): SEBlock(\n","    (squeeze): AdaptiveAvgPool2d(output_size=1)\n","    (excitation): Sequential(\n","      (0): Linear(in_features=128, out_features=8, bias=True)\n","      (1): ReLU()\n","      (2): Linear(in_features=8, out_features=128, bias=True)\n","      (3): Sigmoid()\n","    )\n","  )\n","  (spatial_attn): Sequential(\n","    (0): Conv2d(128, 1, kernel_size=(1, 1), stride=(1, 1), bias=False)\n","    (1): Sigmoid()\n","  )\n","  (dropout): Dropout(p=0.2, inplace=False)\n","  (classifier): Sequential(\n","    (0): Linear(in_features=128, out_features=32, bias=True)\n","    (1): ReLU6()\n","    (2): Dropout(p=0.2, inplace=False)\n","    (3): Linear(in_features=32, out_features=2, bias=True)\n","  )\n",")"]},"metadata":{},"execution_count":49}]},{"cell_type":"markdown","metadata":{"id":"Ghh46LBo3uGo"},"source":["# Chuyển sang ONXX"]},{"cell_type":"code","execution_count":50,"metadata":{"id":"lBQl35W33wfU","executionInfo":{"status":"ok","timestamp":1772296715577,"user_tz":-420,"elapsed":31,"user":{"displayName":"Ahn Đức","userId":"037069301032
…
