…
MAP[MODEL_NAME]\n","ModelClass = cfg[\"class\"]\n","model      = ModelClass(in_channel=cfg[\"in_channel\"], num_classes=cfg[\"num_classes\"])"]},{"cell_type":"code","execution_count":29,"metadata":{"id":"xGXz7CZ4q5P0","colab":{"base_uri":"https://localhost:8080/"},"executionInfo":{"status":"ok","timestamp":1776084069104,"user_tz":-420,"elapsed":2401,"user":{"displayName":"Ahn Đức","userId":"03706930103223800336"}},"outputId":"a9c7d91b-fd54-4a30-cb3b-e3fc9ca52569"},"outputs":[{"output_type":"execute_result","data":{"text/plain":["LightweightHeartSoundCNN_V2(\n","  (stem): Sequential(\n","    (0): Conv2d(1, 8, kernel_size=(3, 3), stride=(2, 2), padding=(1, 1), bias=False)\n","    (1): BatchNorm2d(8, eps=1e-05, momentum=0.1, affine=True, track_running_stats=True)\n","    (2): ReLU6(inplace=True)\n","  )\n","  (ds1): DSConvBlock(\n","    (dw): Conv2d(8, 8, kernel_size=(3, 3), stride=(2, 2), padding=(1, 1), groups=8, bias=False)\n","    (bn_dw): BatchNorm2d(8, eps=1e-05, momentum=0.1, affine=True, track_running_stats=True)\n","    (pw): Conv2d(8, 16, kernel_size=(1, 1), stride=(1, 1), bias=False)\n","    (bn): BatchNorm2d(16, eps=1e-05, momentum=0.1, affine=True, track_running_stats=True)\n","    (act): ReLU6(inplace=True)\n","  )\n","  (ds2): DSConvBlock(\n","    (dw): Conv2d(16, 16, kernel_size=(3, 3), stride=(2, 2), padding=(1, 1), groups=16, bias=False)\n","    (bn_dw): BatchNorm2d(16, eps=1e-05, momentum=0.1, affine=True, track_running_stats=True)\n","    (pw): Conv2d(16, 32, kernel_size=(1, 1), stride=(1, 1), bias=False)\n","    (bn): BatchNorm2d(32, eps=1e-05, momentum=0.1, affine=True, track_running_stats=True)\n","    (act): ReLU6(inplace=True)\n","  )\n","  (ds3): DSConvBlock(\n","    (dw): Conv2d(32, 32, kernel_size=(3, 3), stride=(1, 1), padding=(1, 1), groups=32, bias=False)\n","    (bn_dw): BatchNorm2d(32, eps=1e-05, momentum=0.1, affine=True, track_running_stats=True)\n","    (pw): Conv2d(32, 48, kernel_size=(1, 1), stride=(1, 1), bias=False)\n","    (bn): BatchNorm2d(48, eps=1e-05, momentum=0.1, affine=True, track_running_stats=True)\n","    (act): ReLU6(inplace=True)\n","  )\n","  (ds4): DSConvBlock(\n","    (dw): Conv2d(48, 48, kernel_size=(3, 3), stride=(1, 1), padding=(1, 1), groups=48, bias=False)\n","    (bn_dw): BatchNorm2d(48, eps=1e-05, momentum=0.1, affine=True, track_running_stats=True)\n","    (pw): Conv2d(48, 64, kernel_size=(1, 1), stride=(1, 1), bias=False)\n","    (bn): BatchNorm2d(64, eps=1e-05, momentum=0.1, affine=True, track_running_stats=True)\n","    (act): ReLU6(inplace=True)\n","  )\n","  (se): LiteSEBlock(\n","    (gap): AdaptiveAvgPool2d(output_size=1)\n","    (fc): Sequential(\n","      (0): Linear(in_features=64, out_features=8, bias=True)\n","      (1): ReLU(inplace=True)\n","      (2): Linear(in_features=8, out_features=64, bias=True)\n","      (3): Sigmoid()\n","    )\n","  )\n","  (head): Sequential(\n","    (0): AdaptiveAvgPool2d(output_size=1)\n","    (1): Flatten(start_dim=1, end_dim=-1)\n","    (2): Dropout(p=0.3, inplace=False)\n","    (3): Linear(in_features=64, out_features=2, bias=True)\n","  )\n",")"]},"metadata":{},"execution_count":29}],"source":["checkpoint = torch.load(model_path, map_location=device, weights_only=False)\n","state_dict = checkpoint.get('state_dict', checkpoint)\n","model.load_state_dict(state_dict)\n","model.to(device)\n","model.eval()"]},{"cell_type":"markdown","metadata":{"id":"MA2a4z-V5eou"},"source":["# Punning"
…
