…
_cfg[\"in_channel\"],\n","            num_classes=model_cfg[\"num_classes\"]\n","        )\n","\n","    model.eval()\n","    return model\n"]},{"cell_type":"code","execution_count":null,"metadata":{"id":"xGXz7CZ4q5P0","executionInfo":{"status":"ok","timestamp":1776352075334,"user_tz":-420,"elapsed":1598,"user":{"displayName":"Ahn Đức","userId":"03706930103223800336"}},"colab":{"base_uri":"https://localhost:8080/"},"outputId":"fdf11f28-c646-443b-bca7-6d827f6687ce"},"outputs":[{"output_type":"execute_result","data":{"text/plain":["LightweightHeartSoundCNN_V2(\n","  (stem): Sequential(\n","    (0): Conv2d(1, 8, kernel_size=(3, 3), stride=(2, 2), padding=(1, 1), bias=False)\n","    (1): BatchNorm2d(8, eps=1e-05, momentum=0.1, affine=True, track_running_stats=True)\n","    (2): ReLU6(inplace=True)\n","  )\n","  (ds1): DSConvBlock(\n","    (dw): Conv2d(8, 8, kernel_size=(3, 3), stride=(2, 2), padding=(1, 1), groups=8, bias=False)\n","    (bn_dw): BatchNorm2d(8, eps=1e-05, momentum=0.1, affine=True, track_running_stats=True)\n","    (pw): Conv2d(8, 16, kernel_size=(1, 1), stride=(1, 1), bias=False)\n","    (bn): BatchNorm2d(16, eps=1e-05, momentum=0.1, affine=True, track_running_stats=True)\n","    (act): ReLU6(inplace=True)\n","  )\n","  (ds2): DSConvBlock(\n","    (dw): Conv2d(16, 16, kernel_size=(3, 3), stride=(2, 2), padding=(1, 1), groups=16, bias=False)\n","    (bn_dw): BatchNorm2d(16, eps=1e-05, momentum=0.1, affine=True, track_running_stats=True)\n","    (pw): Conv2d(16, 32, kernel_size=(1, 1), stride=(1, 1), bias=False)\n","    (bn): BatchNorm2d(32, eps=1e-05, momentum=0.1, affine=True, track_running_stats=True)\n","    (act): ReLU6(inplace=True)\n","  )\n","  (ds3): DSConvBlock(\n","    (dw): Conv2d(32, 32, kernel_size=(3, 3), stride=(1, 1), padding=(1, 1), groups=32, bias=False)\n","    (bn_dw): BatchNorm2d(32, eps=1e-05, momentum=0.1, affine=True, track_running_stats=True)\n","    (pw): Conv2d(32, 48, kernel_size=(1, 1), stride=(1, 1), bias=False)\n","    (bn): BatchNorm2d(48, eps=1e-05, momentum=0.1, affine=True, track_running_stats=True)\n","    (act): ReLU6(inplace=True)\n","  )\n","  (ds4): DSConvBlock(\n","    (dw): Conv2d(48, 48, kernel_size=(3, 3), stride=(1, 1), padding=(1, 1), groups=48, bias=False)\n","    (bn_dw): BatchNorm2d(48, eps=1e-05, momentum=0.1, affine=True, track_running_stats=True)\n","    (pw): Conv2d(48, 64, kernel_size=(1, 1), stride=(1, 1), bias=False)\n","    (bn): BatchNorm2d(64, eps=1e-05, momentum=0.1, affine=True, track_running_stats=True)\n","    (act): ReLU6(inplace=True)\n","  )\n","  (se): LiteSEBlock(\n","    (gap): AdaptiveAvgPool2d(output_size=1)\n","    (fc): Sequential(\n","      (0): Linear(in_features=64, out_features=8, bias=True)\n","      (1): ReLU(inplace=True)\n","      (2): Linear(in_features=8, out_features=64, bias=True)\n","      (3): Sigmoid()\n","    )\n","  )\n","  (head): Sequential(\n","    (0): AdaptiveAvgPool2d(output_size=1)\n","    (1): Flatten(start_dim=1, end_dim=-1)\n","    (2): Dropout(p=0.3, inplace=False)\n","    (3): Linear(in_features=64, out_features=2, bias=True)\n","  )\n",")"]},"metadata":{},"execution_count":25}],"source":["# =========================\n","# CHECK MODEL NAME\n","# =========================\n","if MODEL_NAME not in MODEL_CLASS_MAP:\n","    raise ValueError(\n","        f\"Model {MODEL_NAME} không được hỗ trợ. \"\n","        f\"Các model hỗ trợ: {list(MODEL_CLASS_MAP.keys())}\"\n","    )\n","\n","
…
uts":[]},{"cell_type":"code","source":["device = torch.device(\"cpu\")\n","\n","model = model.to(device)\n","dummy_input = dummy_input.to(device)\n","model.eval()"],"metadata":{"id":"oldHgA1YVtP7","executionInfo":{"status":"ok","timestamp":1776352343341,"user_tz":-420,"elapsed":27,"user":{"displayName":"Ahn Đức","userId":"03706930103223800336"}},"colab":{"base_uri":"https://localhost:8080/"},"outputId":"eabe7a5c-6363-4df5-b16e-616b3c5cc525"},"execution_count":null,"outputs":[{"output_type":"execute_result","data":{"text/plain":["LightweightHeartSoundCNN_V2(\n","  (stem): Sequential(\n","    (0): Conv2d(1, 8, kernel_size=(3, 3), stride=(2, 2), padding=(1, 1), bias=False)\n","    (1): BatchNorm2d(8, eps=1e-05, momentum=0.1, affine=True, track_running_stats=True)\n","    (2): ReLU6(inplace=True)\n","  )\n","  (ds1): DSConvBlock(\n","    (dw): Conv2d(8, 8, kernel_size=(3, 3), stride=(2, 2), padding=(1, 1), groups=8, bias=False)\n","    (bn_dw): BatchNorm2d(8, eps=1e-05, momentum=0.1, affine=True, track_running_stats=True)\n","    (pw): Conv2d(8, 16, kernel_size=(1, 1), stride=(1, 1), bias=False)\n","    (bn): BatchNorm2d(16, eps=1e-05, momentum=0.1, affine=True, track_running_stats=True)\n","    (act): ReLU6(inplace=True)\n","  )\n","  (ds2): DSConvBlock(\n","    (dw): Conv2d(16, 16, kernel_size=(3, 3), stride=(2, 2), padding=(1, 1), groups=16, bias=False)\n","    (bn_dw): BatchNorm2d(16, eps=1e-05, momentum=0.1, affine=True, track_running_stats=True)\n","    (pw): Conv2d(16, 32, kernel_size=(1, 1), stride=(1, 1), bias=False)\n","    (bn): BatchNorm2d(32, eps=1e-05, momentum=0.1, affine=True, track_running_stats=True)\n","    (act): ReLU6(inplace=True)\n","  )\n","  (ds3): DSConvBlock(\n","    (dw): Conv2d(32, 32, kernel_size=(3, 3), stride=(1, 1), padding=(1, 1), groups=32, bias=False)\n","    (bn_dw): BatchNorm2d(32, eps=1e-05, momentum=0.1, affine=True, track_running_stats=True)\n","    (pw): Conv2d(32, 48, kernel_size=(1, 1), stride=(1, 1), bias=False)\n","    (bn): BatchNorm2d(48, eps=1e-05, momentum=0.1, affine=True, track_running_stats=True)\n","    (act): ReLU6(inplace=True)\n","  )\n","  (ds4): DSConvBlock(\n","    (dw): Conv2d(48, 48, kernel_size=(3, 3), stride=(1, 1), padding=(1, 1), groups=48, bias=False)\n","    (bn_dw): BatchNorm2d(48, eps=1e-05, momentum=0.1, affine=True, track_running_stats=True)\n","    (pw): Conv2d(48, 64, kernel_size=(1, 1), stride=(1, 1), bias=False)\n","    (bn): BatchNorm2d(64, eps=1e-05, momentum=0.1, affine=True, track_running_stats=True)\n","    (act): ReLU6(inplace=True)\n","  )\n","  (se): LiteSEBlock(\n","    (gap): AdaptiveAvgPool2d(output_size=1)\n","    (fc): Sequential(\n","      (0): Linear(in_features=64, out_features=8, bias=True)\n","      (1): ReLU(inplace=True)\n","      (2): Linear(in_features=8, out_features=64, bias=True)\n","      (3): Sigmoid()\n","    )\n","  )\n","  (head): Sequential(\n","    (0): AdaptiveAvgPool2d(output_size=1)\n","    (1): Flatten(start_dim=1, end_dim=-1)\n","    (2): Dropout(p=0.3, inplace=False)\n","    (3): Linear(in_features=64, out_features=2, bias=True)\n","  )\n",")"]},"metadata":{},"execution_count":33}]},{"cell_type":"markdown","metadata":{"id":"Ghh46LBo3uGo"},"source":["# Chuyển sang ONXX"]},{"cell_type":"code","execution_count":null,"metadata":{"id":"lBQl35W33wfU","executionInfo":{"status":"ok","timestamp":1776352343354,"user_tz":-420,"elapsed":11,"user":{"displayName":"Ahn Đức","userId":"0370693010
…
