…
asses=cfg[\"num_classes\"]\n","    )\n","\n","else:\n","    raise ValueError(\"Cấu hình model không hợp lệ\")\n","\n","model.to(device)\n","model.eval()"],"metadata":{"id":"xGXz7CZ4q5P0","executionInfo":{"status":"ok","timestamp":1768186981110,"user_tz":-420,"elapsed":112,"user":{"displayName":"Ahn Đức","userId":"03706930103223800336"}},"colab":{"base_uri":"https://localhost:8080/"},"outputId":"36fc4b3d-39ec-4b0c-f0ec-f9f422fa7952"},"execution_count":61,"outputs":[{"output_type":"execute_result","data":{"text/plain":["crnn(\n","  (cnn): CNN_Encoder(\n","    (conv1): ConvBlock(\n","      (conv1): Conv2d(1, 32, kernel_size=(3, 3), stride=(1, 1), padding=(1, 1), bias=False)\n","      (conv2): Conv2d(32, 32, kernel_size=(3, 3), stride=(1, 1), padding=(1, 1), bias=False)\n","      (bn1): BatchNorm2d(32, eps=1e-05, momentum=0.1, affine=True, track_running_stats=True)\n","      (bn2): BatchNorm2d(32, eps=1e-05, momentum=0.1, affine=True, track_running_stats=True)\n","    )\n","    (conv2): ConvBlock(\n","      (conv1): Conv2d(32, 64, kernel_size=(3, 3), stride=(1, 1), padding=(1, 1), bias=False)\n","      (conv2): Conv2d(64, 64, kernel_size=(3, 3), stride=(1, 1), padding=(1, 1), bias=False)\n","      (bn1): BatchNorm2d(64, eps=1e-05, momentum=0.1, affine=True, track_running_stats=True)\n","      (bn2): BatchNorm2d(64, eps=1e-05, momentum=0.1, affine=True, track_running_stats=True)\n","    )\n","    (conv3): ConvBlock(\n","      (conv1): Conv2d(64, 128, kernel_size=(3, 3), stride=(1, 1), padding=(1, 1), bias=False)\n","      (conv2): Conv2d(128, 128, kernel_size=(3, 3), stride=(1, 1), padding=(1, 1), bias=False)\n","      (bn1): BatchNorm2d(128, eps=1e-05, momentum=0.1, affine=True, track_running_stats=True)\n","      (bn2): BatchNorm2d(128, eps=1e-05, momentum=0.1, affine=True, track_running_stats=True)\n","    )\n","    (conv4): ConvBlock(\n","      (conv1): Conv2d(128, 256, kernel_size=(3, 3), stride=(1, 1), padding=(1, 1), bias=False)\n","      (conv2): Conv2d(256, 256, kernel_size=(3, 3), stride=(1, 1), padding=(1, 1), bias=False)\n","      (bn1): BatchNorm2d(256, eps=1e-05, momentum=0.1, affine=True, track_running_stats=True)\n","      (bn2): BatchNorm2d(256, eps=1e-05, momentum=0.1, affine=True, track_running_stats=True)\n","    )\n","  )\n","  (bilstm): BiLSTM(\n","    (LSTM): LSTM(256, 256, num_layers=2, batch_first=True, dropout=0.2, bidirectional=True)\n","    (layer_out): Linear(in_features=512, out_features=2, bias=False)\n","  )\n",")"]},"metadata":{},"execution_count":61}]},{"cell_type":"code","execution_count":62,"metadata":{"executionInfo":{"elapsed":113,"status":"ok","timestamp":1768186984248,"user":{"displayName":"Ahn Đức","userId":"03706930103223800336"},"user_tz":-420},"id":"3QIy6Djz9Aeu","colab":{"base_uri":"https://localhost:8080/"},"outputId":"6977df90-6342-40
…
